model/tone_model.tflite (tflite, 119872 bytes, 3 tensors)

tfl.pseudo_qconst1 i1 [5, 64]
-108 -29 -43 71 -21 16 45 15
-37 15 -9 1 56 -3 19 -36
-38 -69 107 8 -48 -90 -124 44
-83 6 1 101 -90 -13 -75 -76
29 -12 -23 -18 26 22 -17 -15
-92 -48 12 21 -27 -29 -24 102
86 6 11 14 28 -58 -126 -37
-4 -5 127 -69 109 68 -15 -74
16 -2 -43 -72 -3 28 -44 13
-34 25 21 22 -22 7 -60 -36
-63 -127 -12 -54 41 -76 21 -38
-117 -28 8 17 -52 20 -68 -26
-82 -55 -42 6 -37 -25 -37 -37
43 -26 16 -40 0 -32 3 -80
-5 -6 -12 -46 -57 17 -114 -84
1 -27 2 -40 2 -31 -10 -100
31 7 57 -127 -6 -18 -5 26
80 16 -30 33 34 -8 -40 -17
90 -126 -91 -96 -87 96 18 47
-21 42 -10 -93 -27 -50 74 -18
44 -9 -16 -27 -17 -67 4 66
9 82 -23 26 -32 10 21 -82
-93 -51 -82 87 -46 -122 -6 36
-19 21 -70 80 -73 12 -28 25
75 -23 -45 59 -32 23 29 -24
-57 23 -25 -8 -40 -4 -4 26
-5 -64 25 -5 94 -81 117 11
49 -35 28 -116 127 78 -2 96
15 -6 22 -20 24 -23 -38 -29
85 -9 16 -43 0 -25 25 29
48 -47 -68 23 -55 77 -101 -17
6 33 -50 -75 47 68 89 -62
00000000: 94e3 d547 eb10 2d0f db0f f701 38fd 13dc
00000010: dabb 6b08 d0a6 842c ad06 0165 a6f3 b5b4
00000020: 1df4 e9ee 1a16 eff1 a4d0 0c15 e5e3 e866
00000030: 5606 0b0e 1cc6 82db fcfb 7fbb 6d44 f1b6
00000040: 10fe d5b8 fd1c d40d de19 1516 ea07 c4dc
00000050: c181 f4ca 29b4 15da 8be4 0811 cc14 bce6
00000060: aec9 d606 dbe7 dbdb 2be6 10d8 00e0 03b0
00000070: fbfa f4d2 c711 8eac 01e5 02d8 02e1 f69c
00000080: 1f07 3981 faee fb1a 5010 e221 22f8 d8ef
00000090: 5a82 a5a0 a960 122f eb2a f6a3 e5ce 4aee
000000a0: 2cf7 f0e5 efbd 0442 0952 e91a e00a 15ae
000000b0: a3cd ae57 d286 fa24 ed15 ba50 b70c e419
000000c0: 4be9 d33b e017 1de8 c717 e7f8 d8fc fc1a
000000d0: fbc0 19fb 5eaf 750b 31dd 1c8c 7f4e fe60
000000e0: 0ffa 16ec 18e9 dae3 55f7 10d5 00e7 191d
000000f0: 30d1 bc17 c94d 9bef 0621 ceb5 2f44 59c2

tfl.pseudo_qconst3 i1 [64, 32]
12 -10 -4 9 6 -10 6 12
4 -5 13 11 49 23 -127 84
-33 50 3 -14 51 -8 1 23
-10 40 -36 -4 -40 -71 -86 -24
35 23 -75 -71 -13 95 -84 -80
25 29 123 -55 79 55 -76 99
18 -10 -86 62 -87 100 39 34
-118 84 127 -36 73 16 126 9
127 1 -27 -65 -39 17 21 -32
-6 22 61 -16 -8 -30 -15 40
37 -25 33 -23 60 -65 -45 -26
68 73 37 48 18 -31 -15 -60
-127 9 48 80 1 -21 -32 -3
-3 -21 -46 40 3 13 33 -19
-62 13 -39 -20 -29 39 16 29
-76 -82 11 -62 1 0 47 46
-14 -78 -12 63 103 117 -61 35
-96 -72 66 -80 98 32 15 25
47 -63 -61 34 -18 -16 -122 -127
77 -25 -32 -28 -80 -84 95 -38
35 -79 56 -104 127 32 -15 107
102 -99 -46 -51 12 -2 68 -85
-10 67 90 20 109 -98 59 -76
-46 88 -57 41 -52 -30 -64 51
-98 4 24 20 1 -36 -35 -18
45 -7 -127 56 1 -13 33 -10
-12 -21 -13 -3 -70 97 22 15
1 -65 -80 -35 25 -22 33 91
81 -15 -65 -50 39 95 8 -83
44 -51 -69 24 -87 3 64 127
-51 -76 66 90 -46 83 2 92
68 31 118 10 82 2 -50 96
00000000: 0cf6 fc09 06f6 060c 04fb 0d0b 3117 8154
00000010: df32 03f2 33f8 0117 f628 dcfc d8b9 aae8
00000020: 2317 b5b9 f35f acb0 191d 7bc9 4f37 b463
00000030: 12f6 aa3e a964 2722 8a54 7fdc 4910 7e09
00000040: 7f01 e5bf d911 15e0 fa16 3df0 f8e2 f128
00000050: 25e7 21e9 3cbf d3e6 4449 2530 12e1 f1c4
00000060: 8109 3050 01eb e0fd fdeb d228 030d 21ed
00000070: c20d d9ec e327 101d b4ae 0bc2 0100 2f2e
00000080: f2b2 f43f 6775 c323 a0b8 42b0 6220 0f19
00000090: 2fc1 c322 eef0 8681 4de7 e0e4 b0ac 5fda
000000a0: 23b1 3898 7f20 f16b 669d d2cd 0cfe 44ab
000000b0: f643 5a14 6d9e 3bb4 d258 c729 cce2 c033
000000c0: 9e04 1814 01dc ddee 2df9 8138 01f3 21f6
000000d0: f4eb f3fd ba61 160f 01bf b0dd 19ea 215b
000000e0: 51f1 bfce 275f 08ad 2ccd bb18 a903 407f
000000f0: cdb4 425a d253 025c 441f 760a 5202 ce60

tfl.pseudo_qconst4 i1 [3500, 32] scale=0.018302606 zero_point=9
-0.05490782 0.27453908 0.073210426 0.16472346 -0.2928417 -0.36605212 0.16472346 -0.018302606
-0.018302606 0.05490782 0.018302606 0.14642085 0.0 -0.34774953 -0.018302606 0.0
-0.05490782 -0.036605213 -0.36605212 -0.43926257 0.0 0.0 -0.09151303 0.073210426
0.0 0.0 0.0 -0.036605213 0.05490782 -0.16472346 0.036605213 0.018302606
0.10981564 -0.18302606 -0.073210426 0.05490782 -0.34774953 -0.073210426 -0.073210426 0.12811825
-0.34774953 0.3294469 0.14642085 0.036605213 0.20132867 0.073210426 -0.05490782 0.018302606
-0.018302606 0.38435474 -0.16472346 -0.49417037 0.2928417 -0.14642085 0.05490782 -0.20132867
0.073210426 -0.036605213 0.36605212 0.16472346 -0.14642085 -0.20132867 -0.23793389 -0.2928417
0.73210424 0.036605213 -0.5673808 -0.7138016 -0.47586778 0.2562365 0.54907817 -0.47586778
0.073210426 0.2562365 0.49417037 -0.45756516 0.14642085 -0.2928417 -0.14642085 0.40265733
0.73210424 -0.23793389 0.42095995 0.40265733 0.38435474 -0.6588938 -0.49417037 -0.512473
0.8236173 0.6588938 0.42095995 0.69549906 0.21963128 -0.2928417 -0.49417037 -0.512473
-0.036605213 -0.67719644 -0.018302606 0.40265733 -0.2562365 -0.05490782 -0.20132867 0.47586778
-0.75040686 0.45756516 0.18302606 -0.18302606 0.47586778 0.16472346 0.12811825 -0.20132867
-0.49417037 0.80531466 0.018302606 -0.42095995 0.6405912 -0.12811825 0.38435474 -0.27453908
-0.2562365 -0.38435474 0.8602225 -0.036605213 -0.75040686 0.3294469 -0.2562365 -0.47586778
-1.3909981 0.6405912 1.7387476 1.4093007 1.6106293 -0.47586778 -1.9949841 1.2445773
1.1347616 -1.2994851 -1.5191163 1.6838398 -0.47586778 1.628932 -0.40265733 -0.3294469
-1.5008137 0.95173556 -1.5923268 -0.09151303 -1.1530643 1.5008137 1.0432485 1.8851684
-0.93343294 -1.1713668 -1.8668659 -1.6655372 0.5307756 -0.073210426 0.47586778 1.116459
0.09151303 -0.2928417 -0.21963128 0.05490782 -0.43926257 -0.12811825 0.21963128 0.036605213
-0.49417037 0.42095995 0.36605212 -0.20132867 0.2562365 -0.073210426 0.14642085 -0.036605213
0.073210426 0.18302606 0.05490782 -0.31114432 0.47586778 -0.21963128 0.16472346 -0.512473
0.0 -0.12811825 0.69549906 0.31114432 -0.21963128 0.14642085 -0.3294469 -0.36605212
-0.2562365 0.036605213 0.3294469 0.43926257 0.14642085 -0.3294469 -0.38435474 0.38435474
-0.018302606 -0.018302606 -0.38435474 0.3294469 -0.14642085 0.31114432 0.21963128 -0.31114432
-0.2928417 0.31114432 -0.43926257 -0.14642085 -0.12811825 0.34774953 0.3294469 0.05490782
-0.2562365 -0.38435474 0.09151303 -0.38435474 -0.036605213 0.2562365 0.20132867 0.18302606
-0.38435474 -0.8602225 0.0 0.98834074 -0.40265733 -0.21963128 -0.05490782 1.0615512
-1.2811824 0.62228864 0.018302606 -0.05490782 0.45756516 -0.16472346 0.9151303 -0.80531466
-0.98834074 0.7870121 -0.16472346 -1.0798538 0.603986 0.05490782 0.8419199 -0.6405912
-1.2262746 -1.0798538 1.207972 -0.21963128 -1.1347616 1.2262746 0.2562365 -0.5307756
00000000: 0618 0d12 f9f5 1208 080c 0a11 09f6 0809
00000010: 0607 f5f1 0909 040d 0909 0907 0c00 0b0a
00000020: 0fff 050c f605 0510 f61b 110b 140d 060a
00000030: 081e 00ee 1901 0cfe 0d07 1d12 01fe fcf9
00000040: 310b eae2 ef17 27ef 0d17 24f0 11f9 011f
00000050: 31fc 201f 1ee5 eeed 362d 202f 15f9 eeed
00000060: 07e4 081f fb06 fe23 e022 13ff 2312 10fe
00000070: ee35 0af2 2c02 1efa fbf4 3807 e01b fbef
00000080: bd2c 6856 61ef 9c4d 47c2 b665 ef62 f3f7
00000090: b73d b204 ca5b 4270 d6c9 a3ae 2605 2346
000000a0: 0ef9 fd0c f102 150b ee20 1dfe 1705 1107
000000b0: 0d13 0cf8 23fd 12ed 0902 2f1a fd11 f7f5
000000c0: fb0b 1b21 11f7 f41e 0808 f41b 011a 15f8
000000d0: f91a f101 021c 1b0c fbf4 0ef4 0717 1413
000000e0: f4da 093f f3fd 0643 c32b 0a06 2200 3bdd
000000f0: d334 00ce 2a0c 37e6 c6ce 4bfd cb4c 17ec
